…
   "source": [
    "## Paramêtros da rede"
   ]
  },
  {
   "cell_type": "code",
   "execution_count": 104,
   "metadata": {
    "ExecuteTime": {
     "end_time": "2017-09-05T01:27:59.069701Z",
     "start_time": "2017-09-05T01:27:59.058412Z"
    }
   },
   "outputs": [
    {
     "name": "stdout",
     "output_type": "stream",
     "text": [
      "_________________________________________________________________\n",
      "Layer (type)                 Output Shape              Param #   \n",
      "=================================================================\n",
      "conv2d_11 (Conv2D)           (None, 32, 30, 30)        896       \n",
      "_________________________________________________________________\n",
      "activation_21 (Activation)   (None, 32, 30, 30)        0         \n",
      "_________________________________________________________________\n",
      "conv2d_12 (Conv2D)           (None, 32, 28, 28)        9248      \n",
      "_________________________________________________________________\n",
      "activation_22 (Activation)   (None, 32, 28, 28)        0         \n",
      "_________________________________________________________________\n",
      "max_pooling2d_6 (MaxPooling2 (None, 32, 14, 14)        0         \n",
      "_________________________________________________________________\n",
      "dropout_11 (Dropout)         (None, 32, 14, 14)        0         \n",
      "_________________________________________________________________\n",
      "flatten_6 (Flatten)          (None, 6272)              0         \n",
      "_________________________________________________________________\n",
      "dense_11 (Dense)             (None, 128)               802944    \n",
      "_________________________________________________________________\n",
      "activation_23 (Activation)   (None, 128)               0         \n",
      "_________________________________________________________________\n",
      "dropout_12 (Dropout)         (None, 128)               0         \n",
      "_________________________________________________________________\n",
      "dense_12 (Dense)             (None, 3)                 387       \n",
      "_________________________________________________________________\n",
      "activation_24 (Activation)   (None, 3)                 0         \n",
      "=================================================================\n",
      "Total params: 813,475\n",
      "Trainable params: 813,475\n",
      "Non-trainable params: 0\n",
      "_________________________________________________________________\n"
     ]
    }
   ],
   "source": [
    "model.summary()"
   ]
  },
  {
   "cell_type": "markdown",
   "metadata": {},
   "source": [
…
